models/model_10.pth (torch, 87176 bytes, 84 tensors)

convInput.conv1.weight f4 [16, 2, 3, 3]
0.18704776 0.072808474 -0.16626929 -0.21035935 0.08301429 0.036342233 -0.048530567 0.062477317
-0.0058751283 0.03127976 0.25685605 0.28199756 -0.032674126 0.26238745 0.27588323 -0.08868275
0.038766738 -0.13651678 0.022463363 -0.0552478 0.044440392 -0.15425698 -0.006939714 0.06356517
0.0949335 0.06483802 -0.08378092 0.07311216 0.082352825 -0.14105956 0.12839752 0.4605659
0.22722861 0.26384205 0.36425164 0.10994226 -0.10557663 0.024334624 0.017384656 -0.010669808
0.055180807 0.014941733 0.1557732 -0.021685982 -0.08932388 -0.04892484 -0.19798867 -0.016673649
-0.24609722 -0.20982422 0.056190804 -0.0051112124 -0.5823146 -0.061795957 -0.04420648 0.07168495
-0.078580245 0.006252693 -0.07677916 0.14806446 -0.051067505 -0.01781881 0.027595302 0.12196282
0.041048612 0.03771456 -0.2638137 -0.2736343 -0.24381062 0.112046264 -0.31882 0.0057867737
0.06924766 0.008480259 -0.013187 -0.0685787 -0.12772705 0.001960051 0.018620038 0.060853418
0.009292292 -0.06713507 -0.16399159 0.15763673 0.002212305 -0.26525638 0.023128053 -0.081990466
-0.232238 -0.28005713 -0.071968146 -0.1162693 0.14840384 0.03477384 -0.011396254 -0.05380208
0.0489542 0.11162291 -0.093946055 0.181882 -0.05247456 -0.0937487 -0.21391568 0.5900668
0.124265276 0.09579142 -0.1516602 -0.009891376 0.05227469 -0.03577985 -0.023277203 -0.03640448
-0.026748551 0.06529602 -0.07421103 0.08963425 -0.00998307 -0.07245756 0.04010684 0.048954997
0.08422144 -0.94225466 -0.09425973 -0.02464441 0.021160312 0.081160575 -0.0017387274 0.016597655
-0.0008527027 -0.07552552 0.09792484 0.0727959 0.05487336 -0.053156532 -0.112057246 0.0482418
0.06607897 -0.31529197 -0.02856733 -0.3904534 0.12570563 -0.08879258 0.21008784 -0.2326868
-0.02385585 -0.15629396 0.1403802 -0.06785173 0.032960992 0.013557181 0.116697565 0.05271804
-0.13300876 0.064003535 -0.047324087 0.10867874 -0.2419223 0.15164752 -0.24696279 0.21141733
-0.1940375 0.15824498 0.088094875 -0.07873792 -0.004043022 -0.076514065 0.10552926 -0.05287394
-0.045431342 0.025081098 0.007727076 0.16515869 -0.083119035 0.1549934 -0.10445323 -0.21437138
0.0068393718 -0.013704065 0.4390057 -0.045574203 -0.029975282 0.20451035 -0.07056117 0.102538124
-0.10722932 0.06509834 -0.0059470036 -0.089588016 0.023990152 0.047203094 0.20571353 -0.0168715
-0.033456054 -0.15629007 -0.090141565 0.023425657 0.5465646 -0.052113753 0.08280968 0.11594695
-0.041464083 -0.056091696 -0.0077994117 0.037487395 -0.083638474 -0.027317498 -0.011822042 0.03229963
-0.16725479 0.07728384 0.086271696 0.49190634 -0.07824471 0.15537608 0.12928621 -0.13384533
-0.015728837 0.11993657 -0.03504587 0.024856543 0.0060999976 0.008332062 0.02893721 -0.1894155
0.059884995 0.13752924 -0.25609067 -0.06482629 0.009334036 -0.32470194 0.16255504 -0.112633504
-0.28548133 0.043716718 -0.07974116 0.022291858 0.022938434 0.18928298 -0.1010596 -0.12461394
-0.081644215 0.07718909 0.06149568 -0.13130642 -0.028006574 -0.07527503 -0.05397351 0.41990703
-0.023336258 -0.008569529 0.37728766 -0.08962664 0.085701644 -0.050042465 -0.0128442915 -0.23677559
00000000: 7389 3f3e 9c1c 953d 7f42 2abe 7168 57be
00000010: 6503 aa3d 98db 143d fdc7 46bd 37e8 7f3d
00000020: 2684 c0bb 351f 003d a382 833e fc61 903e
00000030: 4ed5 05bd a657 863e 9140 8d3e 4d9f b5bd
00000040: dfc9 1e3d 0ecb 0bbe 1605 b83c 844b 62bd
00000050: 2107 363d 8bf5 1dbe 8a66 e3bb 752e 823d
00000060: 7f6c c23d ccc9 843d 5595 abbd d4bb 953d
00000070: 99a8 a83d eb71 10be a47a 033e 4bcf eb3e
00000080: 9eae 683e 4e16 873e 317f ba3e 6829 e13d
00000090: 8f38 d8bd 6859 c73c 446a 8e3c 6bd0 2ebc
000000a0: 4505 623d 2cce 743c 0283 1f3e cda6 b1bc
000000b0: 70ef b6bd 6a65 48bd 8bbd 4abe 2d97 88bc
000000c0: e900 7cbe 29dc 56be 5428 663d f57b a7bb
000000d0: 9212 15bf c21d 7dbd db11 35bd 8fcf 923d
000000e0: aeee a0bd 64e3 cc3b 643e 9dbd 369e 173e
000000f0: 292c 51bd c1f8 91bc 8b0f e23c a5c7 f93d
00000100: 9722 283d 957a 1a3d 9712 87be cc19 8cbe
00000110: 7ea9 79be 8378 e53d 603c a3be fa9e bd3b
00000120: b8d1 8d3d c9f0 0a3c 490e 58bc fd72 8cbd
00000130: e1ca 02be 3374 003b 0d89 983c 6f41 793d
00000140: b33e 183c 1d7e 89bd 69ed 27be 866b 213e
00000150: 52fc 103b afcf 87be 0b77 bd3c 9eea a7bd
00000160: cccf 6dbe a663 8fbe 0964 93bd 991e eebd
00000170: 2df7 173e 046f 0e3d 5bb7 3abc 925f 5cbd
00000180: 3384 483d 8d9a e43d ca66 c0bd 463f 3a3e
00000190: 90ef 56bd 52ff bfbd b60c 5bbe 9e0e 173f
000001a0: cb7e fe3d 4b2e c43d d04c 1bbe 700f 22bc
000001b0: fc1d 563d e48d 12bd d5af bebc dd1c 15bd
000001c0: c71f dbbc ebb9 853d f4fb 97bd 2992 b73d
000001d0: 0890 23bc a164 94bd 1247 243d 0985 483d
000001e0: 4a7c ac3d 9a37 71bf 3f0b c1bd 13e3 c9bc
000001f0: 6458 ad3c 8437 a63d 03e6 e3ba cef7 873c
00000200: e987 5fba 20ad 9abd d28c c83d 0416 953d
00000210: e3c2 603d aaba 59bd 457e e5bd 3299 453d
00000220: 6954 873d f36d a1be 0906 eabc 82e9 c7be
00000230: fab8 003e e2d8 b5bd 4421 573e 7345 6ebe
00000240: 586d c3bc 860b 20be d4bf 0f3e d9f5 8abd
00000250: 1b02 073d f01e 5e3c 22ff ee3d dfee 573d
00000260: 7333 08be 4914 833d e7d6 41bd f692 de3d
00000270: 7bba 77be 7d49 1b3e d0e3 7cbe c97d 583e
00000280: c4b1 46be f90a 223e 166b b43d 5941 a1bd
00000290: 547b 84bb 68b3 9cbd ba1f d83d 5892 58bd
000002a0: 3716 3abd e076 cd3c 6933 fd3b 5c1f 293e
000002b0: 503a aabd 97b6 1e3e 93eb d5bd 2c84 5bbe
000002c0: cf1c e03b 0487 60bc 5bc5 e03e 04ac 3abd
000002d0: b98e f5bc 296b 513e 6082 90bd 82ff d13d
000002e0: 0c9b dbbd 4752 853d 15df c2bb ec79 b7bd
000002f0: ff86 c43c 0858 413d 91a6 523e 1a36 8abc
00000300: 3709 09bd 810a 20be 249c b8bd 2ae7 bf3c
00000310: a8eb 0b3f 3b75 55bd 1f98 a93d 9875 ed3d
00000320: 3ed6 29bd 68c0 65bd 3592 ffbb 628c 193d
00000330: a64a abbd f2c8 dfbc 3db1 41bc 9e4c 043d
00000340: d744 2bbe fd46 9e3d 37af b03d 26db fb3e
00000350: c33e a0bd e81a 1f3e 9b63 043e c00e 09be
00000360: c3d9 80bc 4ea1 f53d 428c 0fbd f39f cb3c
00000370: 7de2 c73b 3383 083c ba0d ed3c 23f6 41be
00000380: f849 753d 77d4 0c3e 511e 83be a5c3 84bd
00000390: c9ed 183c 553f a6be d474 263e 65ac e6bd
000003a0: 9c2a 92be 4d10 333d 554f a3bd 6a9d b63c
000003b0: 62e9 bb3c 66d3 413e 56f8 cebd 9835 ffbd
000003c0: 1535 a7bd 5015 9e3d e5e2 7b3d 3175 06be
000003d0: 0b6e e5bc cc29 9abd 5413 5dbd 0efe d63e
000003e0: ae2b bfbc 3667 0cbc d92b c13e 2c8e b7bd
000003f0: 5884 af3d 54f9 4cbd dd70 52bc 4d75 72be

convInput.conv1.ce.weight f4 [5, 9]
-0.119652346 0.21396267 0.12868555 -0.0137049025 0.14071009 0.28685567 -0.21847646 0.104224086
-0.0014731406 0.12973624 -0.1932396 -0.2609591 -0.0051683537 0.12341267 -0.2597585 -0.00036616914
0.15650877 0.07846206 -0.17891583 0.08121284 0.11701019 0.27449274 0.30051306 0.20253508
-0.36071488 -0.10847773 0.20747727 0.09640426 0.115282 0.21051027 0.2925276 0.107352145
-0.029735815 -0.025732316 0.16640154 0.35146108 0.017364325 0.07947111 0.1095632 -0.04889431
-0.1202686 0.14736551 0.041362844 0.042940356 0.039616242
00000000: 4a0c f5bd 0819 5b3e 25c6 033e 878a 60bc
00000010: 4e16 103e bfde 923e 4bb8 5fbe 7073 d53d
00000020: 6516 c1ba 94d9 043e 9ae0 45be 6e9c 85be
00000030: 4b5b a9bb c8bf fc3d 11ff 84be 64fa bfb9
00000040: d643 203e b7b0 a03d b635 37be eb52 a63d
00000050: 0aa3 ef3d 508a 8c3e d9dc 993e 5b65 4f3e
00000060: 9faf b8be 9229 debd ec74 543e 996f c53d
00000070: f818 ec3d 0190 573e 2dc6 953e 71db db3d
00000080: 8698 f3bc 94cc d2bc 2a65 2a3e b5f2 b33e
00000090: a13f 8e3c c0c1 a23d ac62 e03d 6645 48bd
000000a0: 624f f6bd fce6 163e 166c 293d 3ae2 2f3d
000000b0: a444 223d

convInput.conv1.ce_bn.weight f4 [2]
0.6717261 0.6961093
00000000: 3ef6 2b3f 3834 323f

convInput.conv1.ce_bn.bias f4 [2]
0.020201506 -0.42198846
00000000: a17d a53c df0e d8be

convInput.conv1.ce_bn.running_mean f4 [2]
0.10139204 0.14823662
00000000: a1a6 cf3d 57cb 173e

convInput.conv1.ce_bn.running_var f4 [2]
0.016001789 0.03179236
00000000: 2f16 833c b538 023d

convInput.conv1.ci_bn2.weight f4 [2]
0.97474104 0.71961623
00000000: a188 793f c538 383f

convInput.conv1.ci_bn2.bias f4 [2]
-0.29073521 -0.49145588
00000000: 3fdb 94be 1ba0 fbbe

convInput.conv1.ci_bn2.running_mean f4 [2]
0.10139204 0.14823662
00000000: a1a6 cf3d 57cb 173e

convInput.conv1.ci_bn2.running_var f4 [2]
0.016001789 0.03179236
00000000: 2f16 833c b538 023d

convInput.conv1.ci.weight f4 [16, 2]
-0.824304 0.2315178 -0.15775998 -0.22773825 -0.08161927 -0.50262886 0.36795896 0.11832566
0.08133786 0.3398929 0.31914583 0.6981493 -0.050357323 -0.56090605 -0.05226305 0.548952
-0.09550479 0.30172962 -0.72416717 -0.008438467 -0.5102153 -0.37631023 -0.07511819 0.28551054
0.02915599 -0.30035785 -0.07288063 -0.8371378 -0.031095335 -0.3515096 -0.14067426 -0.506272
00000000: 9605 53bf 0113 6d3e d58b 21be 3734 69be
00000010: 0128 a7bd 49ac 00bf 1e65 bc3e b954 f23d
00000020: 7794 a63d 7106 ae3e 1567 a33e eab9 323f
00000030: 7b43 4ebd 8a97 0fbf c811 56bd 1e88 0c3f
00000040: 0498 c3bd 4e7c 9a3e 0563 39bf 7f41 0abc
00000050: 789d 02bf bcab c0be 91d7 99bd 702e 923e
00000060: 8bd8 ee3c 81c8 99be 7142 95bd aa4e 56bf
00000070: a5bb febc 11f9 b3be ea0c 10be 0b9b 01bf

convInput.conv1.ci_bn.weight f4 [16]
0.55666524 0.8428515 1.1094614 0.40431696 0.6491614 0.2364545 0.8970563 0.8838687
1.4807614 0.6467023 0.81133664 0.6014972 0.96433747 0.93276954 0.86018324 0.73779047
00000000: 9d81 0e3f 1ec5 573f d502 8e3f a202 cf3e
00000010: 712f 263f 2121 723e 7ba5 653f 3845 623f
00000020: 9789 bd3f 488e 253f c2b3 4f3f b8fb 193f
00000030: d2de 763f fcc9 6e3f f834 5c3f d6df 3c3f

convInput.conv1.ci_bn.bias f4 [16]
-0.32592213 -0.17434174 0.16742794 -0.65280426 -0.21490474 -0.39443165 -0.0065599796 -0.03473624
-0.21025021 -0.22067538 -0.15729214 -0.06521149 0.049301524 0.0034487096 -0.09209436 -0.14684498
00000000: 44df a6be a486 32be 3b72 2b3e 2e1e 27bf
00000010: fd0f 5cbe f2f2 c9be 19f5 d6bb 9647 0ebd
00000020: d54b 57be baf8 61be 3111 21be 9a8d 85bd
00000030: 65f0 493d bf03 623b f89b bcbd 885e 16be

convInput.conv1.ci_bn.running_mean f4 [16]
-0.21007332 -0.07196159 -0.08170901 0.119301446 0.06244575 0.17221563 -0.07898947 0.04850129
0.007747006 -0.20885777 -0.19019823 0.011533758 -0.026123991 -0.117571875 -0.05028078 -0.098864585
00000000: 761d 57be 9960 93bd 0e57 a7bd 5154 f43d
00000010: 1dc7 7f3d 4b59 303e 3bc5 a1bd 4aa9 463d
00000020: 99da fd3b d0de 55be 53c3 42be 16f8 3c3c
00000030: fb01 d6bc 86c9 f0bd 38f3 4dbd 8479 cabd

convInput.conv1.ci_bn.running_var f4 [16]
0.145277 0.018253801 0.030056536 0.046045028 0.016465418 0.11120199 0.031002283 0.01837327
0.0036019399 0.1404559 0.12021484 0.0034449564 0.005414613 0.0687763 0.012357843 0.040029712
00000000: 7ec3 143e ff88 953c 2039 f63c b699 3c3d
00000010: 7ce2 863c debd e33d 80f8 fd3c 8a83 963c
00000020: 860e 6c3b acd3 0f3e 3333 f63d c7c4 613b
00000030: 116d b13b 97da 8c3d 8d78 4a3c 32f6 233d

convInput.conv1.gd.weight f4 [9, 5]
-0.16182598 -0.36706403 -0.017839221 -0.12528393 -0.063288495 0.3173892 -0.10967525 -0.006094112
-0.15556991 0.08511367 -0.33726093 -0.3480097 0.2506252 -0.21908754 0.06879047 -0.0984242
-0.07328819 -0.2524653 -0.14203991 -0.027469208 0.2212796 0.08970964 -0.07180757 -0.11959043
0.1747351 -0.40453675 -0.43295002 -0.2463649 -0.17583907 -0.2888402 0.19711982 -0.1948851
-0.073460296 -0.15694351 -0.28086063 -0.1195267 -0.24263752 -0.10084089 -0.15441214 -0.06331353
-0.15235285 -0.28878838 0.005453115 -0.23483126 -0.37851837
00000000: b6b5 25be d1ef bbbe 8f23 92bc 6e4a 00be
00000010: 669d 81bd d680 a23e 6b9d e0bd 1eb1 c7bb
00000020: b84d 1fbe 1350 ae3d 77ad acbe 542e b2be
00000030: f251 803e 7c58 60be 05e2 8c3d a192 c9bd
00000040: 1e18 96bd 2243 81be e972 11be 1b07 e1bc
00000050: 1f97 623e b0b9 b73d d90f 93bd d4eb f4bd
00000060: c2ed 323e 711f cfbe a0ab ddbe 1547 7cbe
00000070: 280f 34be dde2 93be c7d9 493e f68f 47be
00000080: 5a72 96bd cdb5 20be f7cc 8fbe 6aca f4bd
00000090: f875 78be ab85 cebd 371e 1ebe 86aa 81bd
000000a0: 6302 1cbe 12dc 93be 0bb0 b23b 9b77 70be
000000b0: 29cd c1be

convInput.conv1.gd2.weight f4 [9, 5]
-0.029878993 -0.45323163 0.09133025 -0.021265024 0.19364826 -0.22018464 -0.26233023 -0.027026657
-0.1034225 -0.3585013 0.5125009 0.19325258 0.21444921 -0.010978156 -0.10360818 -0.33820084
-0.07688099 -0.087792486 -0.083589785 -0.23573676 0.08618237 0.4284029 0.090827554 0.041014973
0.6696254 -0.55671597 -0.2887436 -0.24491651 0.020924203 -0.45436102 0.7987127 -0.3582171
0.14851594 -0.14825936 -0.44149387 0.024420558 0.3862003 -0.10722986 0.011432442 0.14108682
0.60605305 0.4052461 0.14590967 0.060950235 0.20901029
00000000: cac4 f4bc fa0d e8be 5b0b bb3d fd33 aebc
00000010: bb4b 463e 1578 61be 2650 86be 0267 ddbc
00000020: 2dcf d3bd 7b8d b7be 4233 033f 01e4 453e
00000030: 9398 5b3e b9dd 33bc 8730 d4bd a928 adbe
00000040: c873 9dbd 8ccc b3bd 1f31 abbd fa64 71be
00000050: 6280 b03d a057 db3e cc03 ba3d 51ff 273d
00000060: 926c 2b3f f084 0ebf 33d6 93be 65cb 7abe
00000070: 3c69 ab3c 02a2 e8be 6f78 4c3f 3b68 b7be
00000080: 9014 183e 4dd1 17be 7c0b e2be 9f0d c83c
00000090: 0cbc c53e 549b dbbd 234f 3b3c 1079 103e
000000a0: 4b26 1b3f 6b7c cf3e 5869 153e f4a6 793d
000000b0: cb06 563e

convInput.bn1.weight f4 [16]
0.78336805 1.0510997 0.97845286 1.1066155 1.1121879 1.0277646 1.0241967 1.0029322
1.1470039 0.80252504 0.78564376 0.70793045 0.8049444 1.0059536 1.0223924 1.0262324
00000000: cf8a 483f 6f8a 863f e37b 7a3f 94a5 8d3f
00000010: 2c5c 8e3f ca8d 833f e118 833f 1560 803f
00000020: 06d1 923f 4872 4d3f f31f 493f ee3a 353f
00000030: d610 4e3f 16c3 803f c1dd 823f 955b 833f

convInput.bn1.bias f4 [16]
0.06046849 0.1277587 -0.07572637 -0.06285659 -0.096891485 0.33236372 0.16568999 -0.027809981
-0.30712476 0.40329143 -0.07963749 0.121300325 -0.12894638 0.26406148 -0.1928967 0.37412545
00000000: cfad 773d 2dd3 023e 6d16 9bbd f5ba 80bd
00000010: 0b6f c6bd 942b aa3e a3aa 293e c2d1 e3bc
00000020: 753f 9dbe 377c ce3e fb18 a3bd 4e6c f83d
00000030: 850a 04be 1133 873e b686 45be 5f8d bf3e

convInput.bn1.running_mean f4 [16]
0.12243755 0.21668597 -0.19279045 -0.1082658 -0.1287737 0.06593854 -0.14927089 -0.09027456
0.00993487 0.03994821 0.06447868 0.08460501 -0.11357386 0.073640145 -0.1175219 0.089106016
00000000: 8ac0 fa3d ede2 5d3e dc6a 45be 76ba ddbd
00000010: 41dd 03be c90a 873d 78da 18be dee1 b8bd
00000020: ddc5 223c bca0 233d 660d 843d 6445 ad3d
00000030: 6999 e8bd a5d0 963d 52af f0bd 377d b63d

convInput.bn1.running_var f4 [16]
0.010861794 0.033426642 0.026715947 0.008243814 0.011576562 0.0032953587 0.016706847 0.0073996466
0.0029451067 0.0011782022 0.0030607507 0.0054446934 0.009401794 0.004494263 0.0103327595 0.0058426056
00000000: abf5 313c 60ea 083d 67db da3c 1011 073c
00000010: 9fab 3d3c f2f6 573b ccdc 883c bc78 f23b
00000020: b102 413b e86d 9a3a e096 483b 6669 b23b
00000030: fb09 1a3c 9c44 933b bc4a 293c 5473 bf3b

conv.conv1.weight f4 [16, 16, 3, 3]
0.016175922 0.05368839 -0.051474523 0.046095267 0.038351268 -6.3267886e-05 -0.064887695 -0.050705332
-0.066338964 0.06681623 0.029198978 0.11435889 0.10783105 -0.059986886 0.08234118 0.06289703
0.006316063 0.0042539528 0.075448774 -0.048805077 -0.032792743 -0.00034534774 0.069770604 -0.010465283
-0.03310913 0.047924247 -0.03813339 -0.088558175 -0.03396652 0.021539964 0.037818428 0.00045902896
-0.034482915 -0.040428147 -0.01595476 -0.079332724 -0.102233544 -0.061221562 0.039567236 0.03575617
0.083193 0.10710435 0.01423967 -0.03318634 -0.029998692 0.039475672 0.12863687 -0.084097065
0.023588356 0.09565907 0.0005062293 -0.024126783 0.02218505 0.027139258 0.023955267 -0.043859877
-0.028438207 -0.06263588 0.031105263 -0.029671973 0.06146577 0.09876399 0.071938396 0.10703159
0.05802494 -0.024489509 0.07172894 0.08177638 0.14436992 0.03399222 0.12686543 -0.014557676
0.052188817 0.054736402 0.10544138 0.010125899 0.07750722 -0.012062845 0.08103899 -0.1250791
0.024415249 -0.13033766 0.007879886 0.0012567972 0.09171127 -0.059384342 -0.015825562 -0.06408527
0.013157819 0.05733947 -0.016727779 0.1299271 -0.010118187 -0.027471611 0.090237 0.045553904
0.031836294 -0.029510451 -0.014485971 -0.044481073 -0.09991067 -0.041295514 -0.022383908 0.030262956
0.0018175548 -0.04139954 -0.0883271 0.014784941 0.074131764 -0.087276384 -0.018992731 -0.0501162
0.0038773238 -0.051343184 0.011422217 -0.047865223 0.06654544 -0.0026273716 0.31872267 0.023971526
0.051534723 0.0916885 0.007507858 -0.0012486118 0.0019510031 -0.052461013 0.047605224 -0.10864256
-0.0870571 0.04593145 0.060826812 -0.08799986 -0.05930824 0.07131834 0.07625076 -0.016544454
0.10257276 0.14686967 -0.049168795 0.012708894 -0.018828927 0.01876991 -0.05518607 -0.045256853
0.0057805274 -0.011387182 -0.0463222 0.07001459 -0.027925711 0.018231614 -0.0062090945 0.058084168
-0.03741546 0.017895432 -0.0044887266 -0.03488189 0.009064647 -0.017166667 0.06383257 -0.059546396
0.072076134 -0.010909827 0.0415939 -0.09666227 -0.06332528 -0.04551016 -0.00071334495 -0.039288986
0.05360905 -0.08254573 -0.17507154 0.021994881 -0.07501731 -0.017729152 -0.09395954 -0.09686077
0.01893292 0.06664331 -0.0907727 -0.063833416 -0.0008554557 -0.06334194 0.0031926562 -0.07289596
-0.096695215 -0.1304285 -0.05719749 -0.038772706 -0.037447635 -0.017344438 0.035844777 -0.00083998917
0.014981975 0.065016575 0.020193988 0.03719288 -0.03574159 -0.017306132 0.0011670699 0.22073585
0.027053762 0.20512113 0.25058845 0.040124048 0.04539404 -0.00094452704 -0.15634426 -0.05645134
-0.015664322 -0.088658094 0.0696928 -0.05270854 -0.047938243 -0.03245338 -0.032316554 -0.0041812314
0.11842298 -0.01600875 0.023396587 0.1069599 0.090420954 0.07445393 0.029065976 -0.003084052
-0.051477082 -0.007842111 0.024178557 0.00016389014 0.030222524 -0.0022821112 -0.04575471 -0.07485019
-0.018294193 -0.010785683 -0.039298996 -0.031103184 0.06405309 0.0113863 -0.0459345 -0.035676427
-0.07598657 -0.0034064753 -0.007947546 0.0439735 -0.011297529 0.018088039 -0.059923917 -0.009728622
0.052467983 0.06413779 0.052683394 -0.036481403 0.009755242 -0.019114487 0.007855227 0.13930053
00000000: 5e83 843c 5be8 5b3d f3d6 52bd 64ce 3c3d
00000010: 3816 1d3d b0ae 84b8 d7e3 84bd 65b0 4fbd
00000020: b9dc 87bd f3d6 883d b232 ef3c fe34 ea3d
00000030: 87d6 dc3d cfb4 75bd 7ea2 a83d 28d0 803d
00000040: faf6 ce3b be64 8b3b e384 9a3d d5e7 47bd
00000050: af51 06bd ca0f b5b9 e4e3 8e3d 9476 2bbc
00000060: 709d 07bd 374c 443d c231 1cbd fd5d b5bd
00000070: 7a20 0bbd 9474 b03c 7fe7 1a3d d3a9 f039
00000080: f53d 0dbd fc97 25bd 8fb3 82bc 3279 a2bd
00000090: d25f d1bd 76c3 7abd 4111 223d 1075 123d
000000a0: 1761 aa3d 8759 db3d 814d 693c 66ee 07bd
000000b0: d1bf f5bc 3eb1 213d 62b9 033e 153b acbd
000000c0: 5e3c c13c e7e8 c33d 79b4 043a 88a5 c5bc
000000d0: 6cbd b53c 2653 de3c d63d c43c 6aa6 33bd
000000e0: 3ef7 e8bc 3e47 80bd 77d0 fe3c a312 f3bc
000000f0: 88c3 7b3d c644 ca3d 7054 933d 6133 db3d
00000100: 8fab 6d3d 399e c8bc 9fe6 923d 607a a73d
00000110: b5d5 133e 6d3b 0b3d 03e9 013e 5283 6ebc
00000120: f1c3 553d 4733 603d a6f1 d73d 19e7 253c
00000130: 1bbc 9e3d 3da3 45bc c5f7 a53d bc14 00be
00000140: 7d02 c83c 3c77 05be a31a 013c 1ebb a43a
00000150: 1ed3 bb3d ff3c 73bd 9ca4 81bc 233f 83bd
00000160: e593 573c cbdc 6a3d b208 89bc 9c0b 053e
00000170: c1c6 25bc 250c e1bc 2dce b83d bb96 3a3d
00000180: c666 023d e7bf f1bc 9156 6dbc c931 36bd
00000190: f79d ccbd 7c25 29bd 755e b7bc 05ea f73c
000001a0: 053b ee3a 9092 29bd d7e4 b4bd 8a3c 723c
000001b0: 65d2 973d f6bd b2bd a596 9bbc a546 4dbd
000001c0: b31a 7e3b 3b4d 52bd 4024 3b3c 530e 44bd
000001d0: fa48 883d fb2f 2cbb 9e2f a33e ef5f c43c
000001e0: 1316 533d 2ec7 bb3d 7a04 f63b 76a8 a3ba
000001f0: cdb8 ff3a 5ce1 56bd b2fd 423d fe7f debd
00000200: fe4a b2bd 9e22 3c3d 8925 793d 4539 b4bd
00000210: 32ed 72bd 5a0f 923d 5c29 9c3d 3c88 87bc
00000220: ab11 d23d 0165 163e 3865 49bd f738 503c
00000230: 1f3f 9abc 5bc3 993c ca0a 62bd 405f 39bd
00000240: 946a bd3b 4e91 3abc 59bc 3dbd cf63 8f3d
00000250: 76c4 e4bc 775a 953c a975 cbbb aae9 6d3d
00000260: f440 19bd 7199 923c 2b16 93bb 50e0 0ebd
00000270: e383 143c 1ca1 8cbc a7ba 823d ece6 73bd
00000280: a79c 933d 22bf 32bc 5e5e 2a3d def6 c5bd
00000290: afb0 81bd dd68 3abd c5ff 3aba 7ded 20bd
000002a0: 2a95 5b3d bc0d a9bd f445 33be 9c2e b43c
000002b0: ada2 99bd ba3c 91bc dc6d c0bd f05e c6bd
000002c0: 3619 9b3c 4a7c 883d 0ae7 b9bd 18bb 82bd
000002d0: a940 60ba 6bb9 81bd e23b 513b 7a4a 95bd
000002e0: 2408 c6bd 0c8f 05be ea47 6abd 21d0 1ebd
000002f0: b162 19bd ec15 8ebc f9d1 123d b832 5cba
00000300: f576 753c 6927 853d dd6d a53c 9057 183d
00000310: c665 12bd 97c5 8dbc 5ef8 983a 9408 623e
00000320: da9f dd3c 460b 523e 214d 803e 1d59 243d
00000330: 1aef 393d 239a 77ba b618 20be 8539 67bd
00000340: 7752 80bc 6092 b5bd 19bb 8e3d e9e4 57bd
00000350: e45a 44bd d6ed 04bd 5d5e 04bd b602 89bb
00000360: bf87 f23d c824 83bc 33aa bf3c cb0d db3d
00000370: 9f2e b93d 4d7b 983d c51b ee3c ce1d 4abb
00000380: a2d9 52bd 337c 00bc 1c12 c63c edd9 2b39
00000390: 3a95 f73c 798f 15bb 4a69 3bbd 0e4b 99bd
000003a0: b4dd 95bc 6fb6 30bc fcf7 20bd 1bcc febc
000003b0: 442e 833d 9b8d 3a3c d025 3cbd 7221 12bd
000003c0: d99e 9bbd 2c3f 5fbb 6d36 02bc 8f1d 343d
000003d0: 4519 39bc 5e2d 943c c872 75bd cc64 1fbc
000003e0: abe8 563d ac5a 833d 8bca 573d 866d 15bd
000003f0: 73d4 1f3c fc95 9cbc 36b3 003c cca4 0e3e

conv.conv1.ce.weight f4 [5, 9]
-0.0016890789 -0.13115609 -0.13367768 -0.2990291 0.04859558 0.12652723 -0.2979304 -0.239244
-0.2852537 0.12204735 -0.16211712 -0.06859572 -0.27661014 0.1606385 0.047094643 -0.302693
0.021950504 -0.1725544 -0.5133396 -0.3054471 -0.15249813 -0.12821372 0.10352554 -0.16600217
-0.49470803 -0.2912604 0.08618072 0.10136706 0.31834322 0.30024987 0.02529267 0.017015781
0.24553919 0.24609235 0.06754879 0.22549903 0.00096009654 0.32179052 0.13794634 -0.062298506
0.118407786 0.20805673 0.22220872 -0.046910845 0.17202927
00000000: 1564 ddba c84d 06be cde2 08be 581a 99be
00000010: 290c 473d 5b90 013e 558a 98be 61fc 74be
00000020: c60c 92be f6f3 f93d 0802 26be ea7b 8cbd
00000030: d89f 8dbe 6b7e 243e 50e6 403d 94fa 9abe
00000040: 8bd1 b33c 1ab2 30be 396a 03bf 9063 9cbe
00000050: 7828 1cbe 754a 03be 3305 d43d 79fc 29be
00000060: 5f4a fdbe 1520 95be 847f b03d 8899 cf3d
00000070: e2fd a23e 5aba 993e 9332 cf3c ae64 8b3c
00000080: a06e 7b3e a2ff 7b3e 0557 8a3d 38e9 663e
00000090: fdae 7b3a bac1 a43e ce41 0d3e b82c 7fbd
000000a0: c87f f23d d30c 553e af8a 633e 9625 40bd
000000b0: 7128 303e

conv.conv1.ce_bn.weight f4 [16]
0.9227781 0.90996796 0.97442496 0.91149265 0.96786696 0.86940426 1.0971869 0.9747508
1.0900903 0.80467385 0.989989 0.86926156 1.0767672 0.89443046 1.0948198 0.90315145
00000000: 303b 6c3f a9f3 683f ea73 793f 9557 693f
00000010: 21c6 773f 4791 5e3f 9f70 8c3f 4589 793f
00000020: 1488 8b3f 1bff 4d3f eb6f 7d3f ed87 5e3f
00000030: 82d3 893f 65f9 643f 0e23 8c3f ef34 673f

conv.conv1.ce_bn.bias f4 [16]
-0.33215985 0.04442111 0.030131167 -0.1181957 0.0375377 -0.056538153 0.08039561 -0.026944239
-0.1283675 -0.20015314 -0.11345559 0.083716586 0.019023733 0.01587534 -0.030330552 -0.047134623
00000000: db10 aabe e9f2 353d a3d5 f63c 9610 f2bd
00000010: 22c1 193d 8d94 67bd 74a6 a43d 2aba dcbc
00000020: c572 03be f2f4 4cbe 685b e8bd 9a73 ab3d
00000030: a9d7 9b3c 000d 823c c777 f8bc 3c10 41bd

conv.conv1.ce_bn.running_mean f4 [16]
-0.15290923 -0.14429472 -0.09178371 -0.13717982 -0.135907 -0.16159831 -0.14211605 -0.115391895
-0.124631755 -0.16234027 -0.14864245 -0.14205483 -0.10227576 -0.14653105 -0.103914104 -0.13427295
00000000: 3d94 1cbe ffc1 13be 19f9 bbbd de78 0cbe
00000010: 342b 0bbe 077a 25be df86 11be 9652 ecbd
00000020: ef3e ffbd 873c 26be ba35 18be d276 11be
00000030: f475 d1bd 3c0c 16be ebd0 d4bd d97e 09be

conv.conv1.ce_bn.running_var f4 [16]
0.602771 0.6544278 0.40155703 0.6136984 0.57110393 0.5424174 0.9055461 0.58352214
0.6218444 0.5704421 0.56385916 0.47870404 0.62955934 0.5351928 0.5545067 0.65628105
00000000: 334f 1a3f 9588 273f e298 cd3e 571b 1d3f
00000010: de33 123f dedb 0a3f dfd1 673f b561 153f
00000020: 3231 1f3f 7e08 123f 1359 103f b218 f53e
00000030: cd2a 213f 6502 093f 27f4 0d3f 0902 283f

conv.conv1.ci_bn2.weight f4 [16]
1.0451198 0.89484495 1.1215165 1.0821359 0.9437493 0.893596 1.0609716 1.0467151
0.92302275 1.0821208 1.0267891 0.9938957 0.9197805 0.90972257 0.9871748 0.99874693
00000000: 7cc6 853f 8f14 653f da8d 8f3f 6e83 8a3f
00000010: 8e99 713f b5c2 643f ebcd 873f c3fa 853f
00000020: 384b 6c3f ef82 8a3f d36d 833f f36f 7e3f
00000030: bc76 6b3f 94e3 683f 7db7 7c3f e1ad 7f3f

conv.conv1.ci_bn2.bias f4 [16]
0.048975933 -0.22920662 0.11170803 0.04400222 -0.082391046 -0.11335081 -0.09842325 -0.023636632
0.10144886 -0.023913933 -0.07443916 -0.038311094 0.07180646 -0.03602465 0.09098373 -0.07803868
00000000: fd9a 483d 24b5 6abe 2ec7 e43d ac3b 343d
00000010: a3bc a8bd 7824 e8bd 2192 c9bd 9ca1 c1bc
00000020: 6bc4 cf3d 27e7 c3bc 8f73 98bd 18ec 1cbd
00000030: 440f 933d 958e 13bd ae55 ba3d bed2 9fbd

conv.conv1.ci_bn2.running_mean f4 [16]
-0.15290923 -0.14429472 -0.09178371 -0.13717982 -0.135907 -0.16159831 -0.14211605 -0.115391895
-0.124631755 -0.16234027 -0.14864245 -0.14205483 -0.10227576 -0.14653105 -0.103914104 -0.13427295
00000000: 3d94 1cbe ffc1 13be 19f9 bbbd de78 0cbe
00000010: 342b 0bbe 077a 25be df86 11be 9652 ecbd
00000020: ef3e ffbd 873c 26be ba35 18be d276 11be
00000030: f475 d1bd 3c0c 16be ebd0 d4bd d97e 09be

conv.conv1.ci_bn2.running_var f4 [16]
0.602771 0.6544278 0.40155703 0.6136984 0.57110393 0.5424174 0.9055461 0.58352214
0.6218444 0.5704421 0.56385916 0.47870404 0.62955934 0.5351928 0.5545067 0.65628105
00000000: 334f 1a3f 9588 273f e298 cd3e 571b 1d3f
00000010: de33 123f dedb 0a3f dfd1 673f b561 153f
00000020: 3231 1f3f 7e08 123f 1359 103f b218 f53e
00000030: cd2a 213f 6502 093f 27f4 0d3f 0902 283f

conv.conv1.ci.weight f4 [16, 16]
-0.038702104 0.054529194 0.02032153 0.25562456 -0.016677571 0.15375203 0.40443477 -0.29480127
-0.101889074 -0.065381676 0.030480495 0.08955983 -0.16369559 0.022179011 -0.031538896 0.20037149
0.092525914 0.130882 -0.03863429 0.18265204 0.025940051 -0.15548493 -0.00040314748 -0.08302831
-0.023102043 -0.06713978 -0.17300124 -0.22088628 -0.0406037 0.14364234 -0.12387875 -0.1970505
0.21023235 -0.24306688 0.030482939 -0.17090896 -0.0588023 -0.0086325435 -0.18938035 -0.1278454
-0.30147865 -0.18452331 0.0029992405 0.15376207 -0.21416356 -0.14380558 -0.296847 0.06595027
-0.23663294 0.0838328 -0.22667715 -0.22463503 -0.14322759 0.15696912 0.018116351 -0.28381553
-0.13209768 -0.23579368 -0.1178609 0.21598963 -0.007262179 0.09711385 0.009265574 0.027682692
0.32856125 -0.034396194 0.19687432 -0.022899838 0.112463854 -0.20457865 -0.010754633 -0.18772139
0.08869654 0.3693783 0.15171705 -0.1137758 0.11038163 0.17472656 -0.14087202 -0.15723239
-0.22169766 0.0752718 -0.14358136 -0.05002043 -0.19034223 0.214453 -0.21507296 0.09053718
-0.1632028 -0.22101375 0.09821049 -0.007345686 0.004510073 -0.14538333 0.1620526 -0.05579797
-0.04368838 0.07533264 0.026775088 0.2506442 0.124360256 0.00027241244 0.14257802 0.12741803
0.054445572 0.011541839 0.11188898 -0.16366774 0.0049732383 -0.09232046 0.14691088 0.12339266
0.11989735 -0.11487461 0.27817854 0.10406939 0.31123376 -0.05193257 0.02050119 0.013787622
0.18585882 0.11780797 -0.04783247 0.05615531 0.06810102 -0.22667243 0.26136702 -0.16216817
0.19897513 -0.18118998 0.29155192 -0.21514167 -0.28502792 0.07282364 -0.20755509 0.0920922
0.07643461 -0.22601292 -0.07702844 -0.21969388 0.10557423 -0.09411201 -0.13428424 -0.0048396885
-0.16640548 0.12487508 0.15960054 -0.21973112 0.07514247 0.17437443 -0.15721464 0.25624898
-0.18163121 -0.30551732 0.12133703 -0.06743369 -0.08311676 -0.17531061 -0.074000016 -0.22119728
-0.15911287 0.051918335 0.20043628 0.16187961 0.25815478 -0.2323928 -0.046239 0.097904965
-0.11991779 -0.056933016 -0.0014180378 0.06815497 0.2490634 -0.21733265 0.03190061 0.16019152
-0.085341156 -0.20678486 -0.10757207 -0.39650577 -0.034428913 -0.025003599 0.1567661 -0.21238962
0.07311231 -0.041044187 -0.15828164 -0.08414766 -0.18665022 0.00400653 -0.17743951 -0.27832642
-0.09905097 -0.14477232 -0.19747831 -0.085006624 0.20425142 -0.118501045 -0.029052751 -0.3289161
0.023941193 0.055711154 -0.23759043 0.013149786 0.12546232 0.1927746 0.08121704 -0.055510804
-0.06311773 -0.08237136 -0.16776802 0.024666745 -0.02385382 -0.124232195 0.03487407 -0.04507803
-0.10532127 -0.18499944 0.10216708 -0.14454304 -0.17615147 0.13089097 -0.06613901 -0.22396792
-0.12532838 0.053577024 -0.07242034 -0.08471783 -0.11647847 0.036854964 -0.27462226 0.12983507
-0.04486043 0.055135563 0.023120109 -0.26208737 0.08209146 0.070406534 0.03818185 -0.09071718
0.0021051415 0.054952975 -0.28656933 0.26666066 0.11220328 -0.04362334 0.078093156 0.0432263
-0.16163178 -0.02220477 -0.038200654 0.19317453 0.26913926 0.19590618 0.29769304 -0.18646425
00000000: 1986 1ebd 015a 5f3d 5679 a63c 39e1 823e
00000010: 679f 88bc 2c71 1d3e 1312 cf3e 31f0 96be
00000020: 38ab d0bd d4e6 85bd 3bb2 f93c 256b b73d
00000030: d19f 27be c2b0 b53c ee2e 01bd 2f2e 4d3e
00000040: 3a7e bd3d ee05 063e fd3e 1ebd 2309 3b3e
00000050: 3b80 d43c 7137 1fbe 8a5d d3b9 bf0a aabd
00000060: 7f40 bdbc 9580 89bd 3d27 31be 0330 62be
00000070: 1150 26bd fa16 133e 24b4 fdbd 9bc7 49be
00000080: 2647 573e 86e6 78be 5bb7 f93c c202 2fbe
00000090: aeda 70bd 836f 0dbc ecec 41be e8e9 02be
000000a0: 695b 9abe aef3 3cbe e88e 443b ce73 1d3e
000000b0: b14d 5bbe c541 13be 54fc 97be ef10 873d
000000c0: e84f 72be 88b0 ab3d 0e1e 68be ba06 66be
000000d0: 41aa 12be 83bc 203e be68 943c 4550 91be
000000e0: 9d44 07be e673 71be 0e61 f1bd 632c 5d3e
000000f0: 93f7 edbb a0e3 c63d a2ce 173c d0c6 e23c
00000100: 2e39 a83e 06e3 0cbd 6c99 493e 7198 bbbc
00000110: 7353 e63d 117d 51be 3334 30bc 093a 40be
00000120: 88a6 b53d 271f bd3e b75b 1b3e 4903 e9bd
00000130: c40f e23d 85eb 323e c140 10be 8701 21be
00000140: b604 63be 1a28 9a3d fe06 13be 39e2 4cbd
00000150: 13e9 42be 9199 5b3e 163c 5cbe 8f6b b93d
00000160: a31e 27be 6e51 62be 9522 c93d 15b4 f0bb
00000170: 3cc9 933b 5edf 14be 1ef1 253e 6a8c 64bd
00000180: 96f2 32bd 0048 9a3d 6e57 db3c 7054 803e
00000190: 97b0 fe3d 94d2 8e39 f9ff 113e df79 023e
000001a0: 5202 5f3d fb19 3d3c 0d26 e53d 8498 27be
000001b0: 8cf6 a23b 8212 bdbd ce6f 163e 4ab5 fc3d
000001c0: be8c f53d 6143 ebbd 6b6d 8e3e 5522 d53d
000001d0: 085a 9f3e 3fb7 54bd 1df2 a73c 7ae5 613c
000001e0: c651 3e3e 4e45 f13d fbeb 43bd 1c03 663d
000001f0: 8c78 8b3d d11c 68be e6d1 853e 6a0f 26be
00000200: 23c0 4b3e de89 39be 4b46 953e 194e 5cbe
00000210: 2eef 91be 9024 953d 5289 54be d69a bc3d
00000220: c089 9c3d ee6f 67be 16c1 9dbd 6ff7 60be
00000230: 4d37 d83d ccbd c0bd cf81 09be 4096 9ebb
00000240: 3366 2abe 82be ff3d 536e 233e 3201 61be
00000250: 4ce4 993d 368f 323e e0fc 20be 1133 833e
00000260: 88fd 39be c46c 9cbe 8c7f f83d ad1a 8abd
00000270: 1f39 aabd a084 33be 528d 97bd 8a81 62be
00000280: 7cee 22be 52a8 543d 2b3f 4d3e c5c3 253e
00000290: dd2c 843e 61f8 6dbe 1b65 3dbd 6682 c83d
000002a0: 7597 f5bd 9832 69bd 74dd b9ba d594 8b3d
000002b0: 7a0a 7f3e 738c 5ebe 37aa 023d 3f09 243e
000002c0: 58c7 aebd 69bf 53be bf4e dcbd ce02 cbbe
000002d0: 5505 0dbd 59d4 ccbc 4b87 203e aa7c 59be
000002e0: e8bb 953d f31d 28bd 9514 22be 9c55 acbd
000002f0: 3c21 3fbe 3649 833b b4b2 35be cd80 8ebe
00000300: 3cdb cabd 323f 14be c137 4abe f417 aebd
00000310: 4927 513e adb0 f2bd 0900 eebc b167 a8be
00000320: 5220 c43c 6131 643d e84a 73be 3372 573c
00000330: 3279 003e b466 453e 1f55 a63d 4c5f 63bd
00000340: de43 81bd 51b2 a8bd 61cb 2bbe ea11 ca3c
00000350: 1669 c3bc 736d febd 1dd8 0e3d bea3 38bd
00000360: aeb2 d7bd 7e70 3dbe f93c d13d 1703 14be
00000370: 0d61 34be 4808 063e e473 87bd d957 65be
00000380: 1556 00be 9573 5b3d 1d51 94bd 8b80 adbd
00000390: 448c eebd 3bf5 163d 4a9b 8cbe 7cf3 043e
000003a0: 92bf 37bd d4d5 613d 6266 bd3c 5130 86be
000003b0: 911f a83d 4d31 903d 9264 1c3d eec9 b9bd
000003c0: 6af6 093b 5f16 613d 37b9 92be bf87 883e
000003d0: d5ca e53d 63ae 32bd 4eef 9f3d 100e 313d
000003e0: cd82 25be c7e6 b5bc 4a78 1cbd 8bcf 453e
000003f0: 9fcc 893e a19b 483e 396b 983e 7cf0 3ebe

conv.conv1.ci_bn.weight f4 [16]
1.070513 1.1102495 1.1807169 1.0941242 1.0486771 1.2590286 1.0266353 0.8643491
1.0927047 1.2648212 0.8920857 1.077208 1.1241168 1.3186961 1.1612492 1.1312501
00000000: 9206 893f a81c 8e3f bb21 973f 430c 8c3f
00000010: 0d3b 863f d927 a13f c968 833f fc45 5d3f
00000020: bfdd 8b3f a9e5 a13f ba5f 643f f4e1 893f
00000030: 0fe3 8f3f 09cb a83f d0a3 943f cecc 903f

conv.conv1.ci_bn.bias f4 [16]
0.0789103 0.14326529 0.18997447 0.1290787 -0.02888574 0.24130262 0.15215673 0.011478334
0.12605457 0.22921406 -0.03584929 0.07453638 0.25845647 0.38463768 0.124832585 0.05147934
00000000: b99b a13d 23b4 123e ab88 423e 352d 043e
00000010: caa1 ecbc 0918 773e f9ce 1b3e 9f0f 3c3c
00000020: 7314 013e 17b7 6a3e b5d6 12bd 88a6 983d
00000030: 6854 843e 3bef c43e 3aa8 ff3d 00dc 523d

conv.conv1.ci_bn.running_mean f4 [16]
0.1598584 -0.2062526 -0.5752953 -0.50057083 0.3000313 -0.33645755 0.37757272 0.45937064
-0.2516774 -0.32146478 0.23738703 -0.72049224 -0.24605721 -0.45198527 -0.21971287 0.29210326
00000000: ecb1 233e e233 53be 8e46 13bf 6925 00bf
00000010: b49d 993e 2a44 acbe 3651 c13e a132 eb3e
00000020: dcdb 80be 0897 a4be 9615 733e 2e72 38bf
00000030: 6cf6 7bbe 9d6a e7be 69fc 60be 8f8e 953e

conv.conv1.ci_bn.running_var f4 [16]
0.08848392 0.084313914 0.57841283 0.41813657 0.18372345 0.23156708 0.25997904 0.37836838
0.14110921 0.20554753 0.14412966 0.90424407 0.11926342 0.35193324 0.121734396 0.18292198
00000000: 0f37 b53d c6ac ac3d dd12 143f ff15 d63e
00000010: 0022 3c3e ec1f 6d3e f91b 853e 80b9 c13e
00000020: ef7e 103e 0d7b 523e ba96 133e 8a7c 673f
00000030: 6140 f43d 9830 b43e e24f f93d e64f 3b3e

conv.conv1.gd.weight f4 [9, 5]
-0.41398618 -0.025811493 -0.13258848 0.09472485 0.165356 -0.2849931 -0.0385421 -0.0659004
-0.07846124 0.19577679 -0.347577 -0.048751384 0.03017717 0.02954503 0.06008775 0.09475456
-0.29195067 0.032187443 -0.0032826562 0.24502346 0.09819398 0.2430123 0.15170385 0.45175034
-0.255456 0.26850134 0.09406977 0.22947165 0.25605065 0.11617759 0.21501493 -0.16295268
-0.058948528 0.42150137 -0.240461 0.15221868 0.12289364 0.060755838 -0.14547768 -0.048960634
-0.39280504 -0.32227996 -0.35093984 -0.30815116 0.12875259
00000000: fff5 d3be a072 d3bc 46c5 07be 1aff c13d
00000010: 1553 293e 9eea 91be 52de 1dbd caf6 86bd
00000020: 49b0 a0bd b679 483e 9df5 b1be 88af 47bd
00000030: 1d36 f73c 6b08 f23c 931e 763d ae0e c23d
00000040: 8f7a 95be fbd6 033d d521 57bb 6ee7 7a3e
00000050: ed19 c93d 37d8 783e 4158 1b3e d24b e73e
00000060: 21cb 82be 0279 893e a7a7 c03d 9efa 6a3e
00000070: 1219 833e 84ee ed3d e02c 5c3e 11dd 26be
00000080: 0374 71bd 07cf d73e 693b 76be 37df 1b3e
00000090: a9af fb3d 1ddb 783d 1af8 14be f28a 48bd
000000a0: be1d c9be e101 a5be 63ae b3be fdc5 9dbe
000000b0: b8d7 033e

conv.conv1.gd2.weight f4 [9, 5]
-0.01478857 0.14493032 -0.34323564 0.08211387 -0.1033352 -0.24574237 -0.1843317 0.28324816
-0.2953234 -0.082477435 -0.6928503 -0.09169401 -0.56786954 -0.34393066 -0.19178943 -0.4818552
0.26750287 -0.29959556 -0.3125816 0.104061306 0.29668856 0.2174376 0.70158505 0.16422978
-0.0130520845 -0.06451634 -0.38568255 -0.18591335 -0.34451246 -0.010119757 -0.4314489 -0.6185727
-0.16687213 -0.33835465 0.3720724 -0.3206228 -0.12394454 0.052162487 -0.28335825 -0.030746965
-0.44281864 0.0143813165 -0.5939458 0.051009096 0.14746529
00000000: c24b 72bc 9d68 143e 95bc afbe 512b a83d
00000010: 68a1 d3bd e3a3 7bbe 73c1 3cbe e705 913e
00000020: a134 97be eee9 a8bd a35e 31bf 12ca bbbd
00000030: e65f 11bf ae17 b0be 7364 44be bab5 f6be
00000040: 23f6 883e 9764 99be b20a a0be 181e d53d
00000050: 90e7 973e f6a7 5e3e 149b 333f da2b 283e
00000060: 69d8 55bc 2521 84bd 2f78 c5be 1260 3ebe
00000070: f063 b0be 56cd 25bc dfe6 dcbe c85a 1ebf
00000080: 87e0 2abe d23c adbe 4680 be3e ac28 a4be
00000090: a3d6 fdbd 55a8 553d 5514 91be 0fe1 fbbc
000000a0: 20b9 e2be 9d9f 6b3c d50c 18bf eaee 503d
000000b0: 2401 173e

conv.bn1.weight f4 [16]
0.97086316 0.9173411 0.9065806 0.9470209 0.9441558 0.83468866 1.2329017 0.97383255
0.9204533 0.8154896 0.9245832 0.92019325 1.0367509 0.98359066 1.0194312 0.93779516
00000000: 7d8a 783f ded6 6a3f ab15 683f f66f 723f
00000010: 32b4 713f 28ae 553f b9cf 9d3f 174d 793f
00000020: d4a2 6b3f edc3 503f 7cb1 6c3f c991 6b3f
00000030: 41b4 843f 99cc 7b3f b97c 823f 5813 703f

conv.bn1.bias f4 [16]
-0.03798798 -0.03376877 -0.032870855 0.11902791 0.038585525 -0.14570814 -0.13014911 0.15128015
0.100589074 0.13247484 0.07160852 -0.13067794 0.18845999 -0.3871042 0.03111226 -0.054800894
00000000: 4999 1bbd 1f51 0abd 97a3 06bd e8c4 f33d
00000010: db0b 1e3d 8434 15be cf45 05be 2fe9 1a3e
00000020: a501 ce3d 7ca7 073e 7da7 923d 70d0 05be
00000030: a8fb 403e 8632 c6be 23df fe3c e776 60bd

conv.bn1.running_mean f4 [16]
0.3406415 0.22140908 -0.3126297 -0.33004126 -0.08575655 0.05409611 0.37166056 -0.052248012
0.03518625 -0.29768485 0.28704065 -0.034704354 -0.23463376 0.69535214 0.18983844 0.062656835
00000000: 9068 ae3e 10b9 623e 0011 a0be 2bfb a8be
00000010: 21a1 afbd e293 5d3d 4b4a be3e 0302 56bd
00000020: 751f 103d 266a 98be fef6 923e 2726 0ebd
00000030: d543 70be 9902 323f 0265 423e 3a52 803d

conv.bn1.running_var f4 [16]
0.16906957 0.48216683 0.3037156 0.3793622 0.1401324 0.20705076 0.24707063 0.2921993
0.09964611 0.54323626 0.5032791 0.19174394 0.2150214 0.44790503 0.36189225 0.29850775
00000000: 9320 2d3e 92de f63e 9c80 9b3e c33b c23e
00000010: de7e 0f3e 1d05 543e 1500 7d3e 269b 953e
00000020: 4213 cc3d 8811 0b3f e6d6 003f 8658 443e
00000030: 922e 5c3e cf53 e53e f149 b93e 02d6 983e

convolutional_out.conv1.weight f4 [1, 16, 1, 1]
0.0071133417 -0.078956105 -0.10378738 0.07786802 -0.021927338 -0.033852223 0.020716561 0.04302432
0.0046400493 0.13280246 0.08074282 0.02282045 0.04824654 0.01925584 0.034192063 -0.0613975
00000000: 0917 e93b bdb3 a1bd 7a8e d4bd 4579 9f3d
00000010: f6a0 b3bc a1a8 0abd c7b5 a93c 453a 303d
00000020: 8e0b 983b 5efd 073e 7e5c a53d f4f1 ba3c
00000030: 2a9e 453d 6cbe 9d3c fa0c 0c3d f27b 7bbd

patch_embed.norm.weight f4 [96]
1.0 1.0 1.0 1.0 1.0 1.0 1.0 1.0
1.0 1.0 1.0 1.0 1.0 1.0 1.0 1.0
1.0 1.0 1.0 1.0 1.0 1.0 1.0 1.0
1.0 1.0 1.0 1.0 1.0 1.0 1.0 1.0
1.0 1.0 1.0 1.0 1.0 1.0 1.0 1.0
1.0 1.0 1.0 1.0 1.0 1.0 1.0 1.0
1.0 1.0 1.0 1.0 1.0 1.0 1.0 1.0
1.0 1.0 1.0 1.0 1.0 1.0 1.0 1.0
1.0 1.0 1.0 1.0 1.0 1.0 1.0 1.0
1.0 1.0 1.0 1.0 1.0 1.0 1.0 1.0
1.0 1.0 1.0 1.0 1.0 1.0 1.0 1.0
1.0 1.0 1.0 1.0 1.0 1.0 1.0 1.0
00000000: 0000 803f 0000 803f 0000 803f 0000 803f
00000010: 0000 803f 0000 803f 0000 803f 0000 803f
00000020: 0000 803f 0000 803f 0000 803f 0000 803f
00000030: 0000 803f 0000 803f 0000 803f 0000 803f
00000040: 0000 803f 0000 803f 0000 803f 0000 803f
00000050: 0000 803f 0000 803f 0000 803f 0000 803f
00000060: 0000 803f 0000 803f 0000 803f 0000 803f
00000070: 0000 803f 0000 803f 0000 803f 0000 803f
00000080: 0000 803f 0000 803f 0000 803f 0000 803f
00000090: 0000 803f 0000 803f 0000 803f 0000 803f
000000a0: 0000 803f 0000 803f 0000 803f 0000 803f
000000b0: 0000 803f 0000 803f 0000 803f 0000 803f
000000c0: 0000 803f 0000 803f 0000 803f 0000 803f
000000d0: 0000 803f 0000 803f 0000 803f 0000 803f
000000e0: 0000 803f 0000 803f 0000 803f 0000 803f
000000f0: 0000 803f 0000 803f 0000 803f 0000 803f
00000100: 0000 803f 0000 803f 0000 803f 0000 803f
00000110: 0000 803f 0000 803f 0000 803f 0000 803f
00000120: 0000 803f 0000 803f 0000 803f 0000 803f
00000130: 0000 803f 0000 803f 0000 803f 0000 803f
00000140: 0000 803f 0000 803f 0000 803f 0000 803f
00000150: 0000 803f 0000 803f 0000 803f 0000 803f
00000160: 0000 803f 0000 803f 0000 803f 0000 803f
00000170: 0000 803f 0000 803f 0000 803f 0000 803f

patch_embed.norm.bias f4 [96]
0.0 0.0 0.0 0.0 0.0 0.0 0.0 0.0
0.0 0.0 0.0 0.0 0.0 0.0 0.0 0.0
0.0 0.0 0.0 0.0 0.0 0.0 0.0 0.0
0.0 0.0 0.0 0.0 0.0 0.0 0.0 0.0
0.0 0.0 0.0 0.0 0.0 0.0 0.0 0.0
0.0 0.0 0.0 0.0 0.0 0.0 0.0 0.0
0.0 0.0 0.0 0.0 0.0 0.0 0.0 0.0
0.0 0.0 0.0 0.0 0.0 0.0 0.0 0.0
0.0 0.0 0.0 0.0 0.0 0.0 0.0 0.0
0.0 0.0 0.0 0.0 0.0 0.0 0.0 0.0
0.0 0.0 0.0 0.0 0.0 0.0 0.0 0.0
0.0 0.0 0.0 0.0 0.0 0.0 0.0 0.0
00000000: 0000 0000 0000 0000 0000 0000 0000 0000
00000010: 0000 0000 0000 0000 0000 0000 0000 0000
00000020: 0000 0000 0000 0000 0000 0000 0000 0000
00000030: 0000 0000 0000 0000 0000 0000 0000 0000
00000040: 0000 0000 0000 0000 0000 0000 0000 0000
00000050: 0000 0000 0000 0000 0000 0000 0000 0000
00000060: 0000 0000 0000 0000 0000 0000 0000 0000
00000070: 0000 0000 0000 0000 0000 0000 0000 0000
00000080: 0000 0000 0000 0000 0000 0000 0000 0000
00000090: 0000 0000 0000 0000 0000 0000 0000 0000
000000a0: 0000 0000 0000 0000 0000 0000 0000 0000
000000b0: 0000 0000 0000 0000 0000 0000 0000 0000
000000c0: 0000 0000 0000 0000 0000 0000 0000 0000
000000d0: 0000 0000 0000 0000 0000 0000 0000 0000
000000e0: 0000 0000 0000 0000 0000 0000 0000 0000
000000f0: 0000 0000 0000 0000 0000 0000 0000 0000
00000100: 0000 0000 0000 0000 0000 0000 0000 0000
00000110: 0000 0000 0000 0000 0000 0000 0000 0000
00000120: 0000 0000 0000 0000 0000 0000 0000 0000
00000130: 0000 0000 0000 0000 0000 0000 0000 0000
00000140: 0000 0000 0000 0000 0000 0000 0000 0000
00000150: 0000 0000 0000 0000 0000 0000 0000 0000
00000160: 0000 0000 0000 0000 0000 0000 0000 0000
00000170: 0000 0000 0000 0000 0000 0000 0000 0000

basicLayer.blocks.0.norm1.weight f4 [16]
0.6054076 0.7181759 0.6750502 0.63687855 0.6466984 0.6871559 0.6352262 0.62103164
0.65740323 0.63386357 0.59562784 0.6621427 0.6780801 0.6714499 0.67426294 0.64225316
00000000: fefb 1a3f 60da 373f 17d0 2c3f 790a 233f
00000010: 078e 253f 73e9 2f3f 2f9e 223f eefb 1e3f
00000020: 944b 283f e244 223f 117b 183f 2f82 293f
00000030: a896 2d3f 24e4 2b3f 7f9c 2c3f b46a 243f

basicLayer.blocks.0.norm1.bias f4 [16]
0.08258872 0.111542664 0.10456513 0.07095007 -0.0021301138 0.088805676 0.14341868 0.068734355
0.04932076 0.06766967 0.1921969 0.14466658 0.08076645 0.17904037 0.010767643 0.034062095
00000000: 4624 a93d 7b70 e43d 3e26 d63d 454e 913d
00000010: 6199 0bbb c0df b53d 59dc 123e 99c4 8c3d
00000020: 9104 4a3d 6596 8a3d 44cf 443e 7a23 143e
00000030: e168 a53d 5c56 373e c56a 303c b284 0b3d

basicLayer.blocks.0.attn.relative_position_bias_table f4 [1, 8]
0.026404575 -0.017838696 0.025505625 -0.012975891 0.0009997766 0.017448103 0.032191366 0.006164037
00000000: 684e d83c 7522 92bc 2cf1 d03c d598 54bc
00000010: f00a 833a 53ef 8e3c 18db 033d b1fb c93b

basicLayer.blocks.0.attn.qkv.weight f4 [48, 16]
0.025641799 -0.1950073 0.11962217 0.14918336 -0.050056368 -0.14191014 -0.114001215 -0.118917406
0.069847584 -0.15725693 0.22956339 -0.19261983 -0.13953227 0.0013414919 0.14330116 0.15019554
0.19939592 -0.19579118 0.14700124 -0.18216643 -0.09525189 -0.21030533 -0.15407234 -0.19399324
-0.2399908 -0.11703968 0.07396653 -0.032042444 0.17555204 -0.031020314 -0.15805289 0.18409345
-0.19572496 -0.042063057 0.016166657 -0.10659218 -0.010989368 0.15899411 -0.013342828 -0.16941026
0.07331458 -0.12487134 0.23139143 0.14491719 -0.027954757 -0.24164814 -0.18612796 0.18227252
-0.12446529 -0.21981493 0.23013172 0.21542278 0.19595933 -0.092445254 -0.10452199 -0.15277204
0.13240641 -0.06588313 0.06933105 -0.14908019 -0.15827435 -0.14879769 -0.16559452 -0.15430143
-0.16703954 0.07547197 -0.10727045 0.16027853 0.04016769 0.006495297 0.22833529 -0.20024064
-0.017400384 -0.023364812 -0.1626845 -0.01175347 0.05163133 0.08395925 -0.13839716 -0.08196148
0.22061768 -0.013584316 0.18057588 -0.21112499 -0.11809197 -0.24784529 0.14930081 0.23356122
-0.17723212 -0.06691554 0.20070031 0.013113141 -0.22923219 0.181153 -0.14757949 -0.17233187
0.23149836 -0.032760054 0.09228662 0.08199814 0.002839595 0.044348657 -0.16399968 0.0853048
-0.13616729 -0.16871992 0.048228443 0.22757089 -0.009437233 -0.060909986 0.032584697 0.04606235
-0.23081028 0.13895434 0.15371147 -0.23200074 0.23301005 -0.004554391 0.050780028 0.17159367
0.064618886 -0.11156237 -0.040251702 -0.1745522 -0.20365873 -0.22919852 0.077366084 -0.21508873
-0.126724 -0.21659458 -0.17082217 -0.19794783 0.09348932 0.1459009 -0.1544277 -0.06990388
-0.24287954 -0.10828808 -0.14183792 0.004889518 0.06516859 0.09192842 -0.026529253 0.16635278
0.1770964 0.13168955 -0.16893774 -0.22671399 -0.011855662 0.19314119 -0.07103917 0.19025213
0.20210272 0.23604584 0.11614734 0.11268085 0.21594977 0.08886787 -0.01275295 -0.18316695
0.24707904 0.06376007 -0.14117202 -0.24418116 0.03668067 -0.009734631 0.0976899 -0.17340437
-0.18619311 -0.120456815 0.014809787 0.22399196 0.18170491 0.19106653 -0.03888887 0.17448351
0.03890878 -0.24277538 -0.058699936 0.13291204 0.19875506 0.14345846 -0.043451756 -0.019418538
0.24728078 -0.064264774 0.15694949 0.13110968 0.14843273 -0.21142471 0.08687201 -0.068476975
-0.10028836 0.031684965 -0.08713013 -0.10000926 0.10301423 0.041488826 0.031183064 -0.16371292
0.1259248 -0.24418294 -0.1769523 0.15059948 0.2425518 -0.089503676 -0.16610324 0.072748214
-0.11596471 0.04516381 -0.15159687 -0.12116632 0.12110075 -0.23804739 0.0051084757 0.050955832
-0.14934555 -0.105788976 0.04440877 -0.14053094 0.029514939 -0.15055975 0.17886648 0.011731654
0.1806272 -0.093262136 0.036390305 0.033348203 0.1873042 0.04788235 -0.17972708 -0.18454504
0.0019046366 -0.0037036836 0.11110434 -0.13579866 0.07406163 0.0062743425 -0.050837547 -0.03463143
0.00938043 0.07899916 0.19055745 -0.097301245 0.20162147 -0.04226321 -0.14113587 0.018956065
0.066521734 -0.2484169 -0.2135641 -0.07695916 0.074759275 0.15578151 -0.028873086 0.10348001
00000000: c00e d23c feaf 47be 78fc f43d 86c3 183e
00000010: e807 4dbd e450 11be 7879 e9bd f88a f3bd
00000020: 400c 8f3d f607 21be aa12 6b3e 223e 45be
00000030: 8ce1 0ebe 00d5 af3a 8abd 123e dccc 193e
00000040: 722e 4c3e 7c7d 48be 7e87 163e d689 3abe
00000050: 6c13 c3bd 485a 57be 24c5 1dbe 2aa6 46be
00000060: 26c0 75be 80b2 efbd c47b 973d f03e 03bd
00000070: eac3 333e 501e febc 9ed8 21be fe82 3c3e
00000080: 206c 48be 504a 2cbd f06f 843c 004d dabd
00000090: c00c 34bc 5acf 223e e09b 5abc e279 2dbe
000000a0: f425 963d 8cbc ffbd e0f1 6c3e 2c65 143e
000000b0: 6001 e5bc 9c72 77be 5498 3ebe a6a5 3a3e
000000c0: a8e7 febd 2a17 61be a6a7 6b3e ca97 5c3e
000000d0: 90a9 483e f053 bdbd a00f d6bd 4670 1cbe
000000e0: 8c95 073e bced 86bd 70fd 8d3d 7aa8 18be
000000f0: ac12 22be 6c5e 18be 9c91 29be 3201 1ebe
00000100: 6a0c 2bbe 0c91 9a3d 9cb0 dbbd 0e20 243e
00000110: e086 243d 80d6 d43b bad0 693e e20b 4dbe
00000120: 408b 8ebc 9067 bfbc c496 26be a091 40bc
00000130: 607b 533d d4f2 ab3d fcb7 0dbe 6cdb a7bd
00000140: 9ae9 613e c090 5ebc e2e8 383e 2631 58be
00000150: 34da f1bd 28cb 7dbe 50e2 183e ac2a 6f3e
00000160: 567c 35be 040b 89bd 6284 4d3e 80d8 563c
00000170: d8bb 6abe 2c80 393e 141f 17be c477 30be
00000180: e80d 6d3e 682f 06bd c400 bd3d a4ee a73d
00000190: 8018 3a3b f0a6 353d 88ef 27be 48b4 ae3d
000001a0: 706f 0bbe eac4 2cbe 308b 453d 5808 693e
000001b0: a09e 1abc c07c 79bd 8877 053d e0ab 3c3d
000001c0: 8859 6cbe 0c4a 0e3e 8a66 1d3e 9a91 6dbe
000001d0: 309a 6e3e 003d 95bb b8fe 4f3d 40b6 2f3e
000001e0: e856 843d d07a e4bd f8de 24bd d0bd 32be
000001f0: ea8b 50be 04b3 6abe 1c72 9e3d 3840 5cbe
00000200: f0c3 01be f8ca 5dbe 02ec 2ebe d6b2 4abe
00000210: 5477 bf3d 0c67 153e 4c22 1ebe c429 8fbd
00000220: 6ab5 78be 24c6 ddbd f63d 11be 4038 a03b
00000230: 1c77 853d f844 bc3d e053 d9bc 6258 2a3e
00000240: c258 353e a0d9 063e 04fe 2cbe b627 68be
00000250: 403e 42bc cec6 453e fc7c 91bd 74d1 423e
00000260: 04f4 4e3e 00b6 713e a8de ed3d 38c5 e63d
00000270: f021 5d3e 5c00 b63d c0f1 50bc 1e90 3bbe
00000280: 4a02 7d3e a494 823d 668f 10be a00a 7abe
00000290: 783e 163d 007e 1fbc a411 c83d ea90 31be
000002a0: 68a9 3ebe 10b2 f6bd c0a4 723c 265e 653e
000002b0: da10 3a3e f2a6 433e f049 1fbd ceab 323e
000002c0: d05e 1f3d 1c9a 78be 586f 70bd 181a 083e
000002d0: 7286 4b3e c6e6 123e 78fa 31bd a013 9fbc
000002e0: 2c37 7d3e 409d 83bd 5eb7 203e 9e41 063e
000002f0: c0fe 173e b87f 58be f4e9 b13d a83d 8cbd
00000300: fc63 cdbd 18c8 013d 4871 b2bd a8d1 ccbd
00000310: 20f9 d23d 30f0 293d a073 ff3c 5ca4 27be
00000320: 6ef2 003e 180b 7abe fc32 35be c036 1a3e
00000330: 805f 783e b44d b7bd f816 2abe 04fd 943d
00000340: e87e edbd b0fd 383d 363c 1bbe 0c26 f8bd
00000350: ac03 f83d b2c2 73be 0065 a73b 10b7 503d
00000360: 0aee 18be e4a7 d8bd f8e5 353d 58e7 0fbe
00000370: 50c9 f13c 562c 1abe c628 373e 2036 403c
00000380: 56f6 383e 3800 bfbd 000e 153d 2098 083d
00000390: accc 3f3e 4820 443d 600a 38be 60f9 3cbe
000003a0: 00a5 f93a 80b9 72bb ac8a e33d ce0e 0bbe
000003b0: a0ad 973d 0099 cd3b 083b 50bd b0d9 0dbd
000003c0: 60b0 193c 50ca a13d 7e21 433e e045 c7bd
000003d0: dc75 4e3e 301c 2dbd ec85 10be c049 9b3c
000003e0: 8c3c 883d 0061 7ebe 8cb0 5abe c49c 9dbd
000003f0: 641b 993d 3085 1f3e 4087 ecbc 54ed d33d

basicLayer.blocks.0.attn.qkv.bias f4 [48]
-0.1302762 0.13723037 -0.15784883 0.21875015 0.029034674 -0.23219523 -0.040031374 -0.08341771
-0.2375913 0.011864036 0.24724904 0.16772252 0.05476278 -0.21801773 -0.023816109 -0.20936695
0.12935117 -0.12132263 -0.039653093 0.21839446 0.116647154 -0.24594828 -0.18589246 0.20509946
0.14106748 -0.034507275 0.19809455 -0.02322933 0.0309259 0.005978495 0.21629071 -0.08518213
-0.0024900269 0.05822982 0.1426768 0.20574017 -0.44521663 -0.12679586 -0.16673894 0.2787729
0.23515108 0.035028134 0.11969047 0.13070497 -0.41327718 0.003178409 0.0010244733 -0.21312289
00000000: 2067 05be 1e86 0c3e 20a3 21be 0a00 603e
00000010: 20da ed3c 96c4 6dbe f0f7 23bd e8d6 aabd
00000020: 224b 73be 6061 423c da2e 7d3e 74bf 2b3e
00000030: f04e 603d 0a40 5fbe 001a c3bc 4a64 56be
00000040: a274 043e 0078 f8bd 486b 22bd cca2 5f3e
00000050: b4e4 ee3d ded9 7bbe 985a 3ebe 9805 523e
00000060: fe73 103e 8057 0dbd 4cd9 4a3e 704b bebc
00000070: 5058 fd3c 40e7 c33b 507b 5d3e f873 aebd
00000080: b82f 23bb 6482 6e3d de19 123e 8dad 523e
00000090: 6ff3 e3be c6d6 01be 9dbd 2abe 52bb 8e3e
000000a0: 72cb 703e a979 0f3d 4720 f53d 86d7 053e
000000b0: 1199 d3be db4c 503b 9f47 863a e33c 5abe
